best_gnn_model.pth (torch, 148948 bytes, 8 tensors)

encoder.0.weight f4 [128, 21]
-0.10784836 -0.11874112 -0.052338958 -0.17345874 -0.010602336 -0.12647533 0.24012125 0.20624919
0.07988839 0.038152866 -0.04185174 0.008814734 -0.12495915 -0.064301565 -0.09069477 -0.025425592
-0.17787452 0.039831296 0.20259419 -0.094323754 0.010924366 -0.07651315 -0.053599007 -0.036897115
0.1378998 -0.016408985 -0.18768956 -0.1296984 0.06095787 0.018469768 -0.046960607 -0.07444812
-0.13452981 -0.12865274 -0.1607556 -0.01386977 0.010083565 0.12145194 -0.098924994 -0.03542446
0.09554741 0.045368783 -0.010678703 0.010081002 -0.023386072 -0.2256797 -0.048504166 -0.08211449
0.15842117 0.14005041 0.008872226 0.1565407 -0.1693067 0.15524979 0.14937596 -0.06526325
-0.20954315 -0.10892591 -0.115276925 -0.030816251 -0.23635347 -0.016512653 -0.1252063 -0.14263013
-0.110175066 -0.10202082 -0.29017386 -0.11255537 -0.035908587 0.05548677 0.20146938 -0.22110029
0.004127996 -0.11985338 -0.22474451 -0.09710931 -0.12202843 -0.243969 -0.29143292 -0.14295007
0.123304024 0.038297836 -0.07866199 -0.20110145 -0.2678755 -0.0602788 -0.068819344 0.03125878
0.14039041 -0.06278155 0.05042473 -0.066587925 -0.15645817 -0.052173257 -0.051356222 0.08339912
0.08507691 -0.034233265 -0.13095075 -0.017676324 -0.128106 0.21605071 -0.2025861 0.17474875
-0.15205802 -0.21261348 -0.030863693 0.006499506 0.10428199 0.1275857 -0.08359152 -0.092979714
-0.018835722 -0.12173234 -0.057498317 -0.26156846 -0.2501837 0.08460353 -0.18242733 0.10079078
-0.04098636 -0.001750833 0.12727742 -0.18674687 -0.089870274 -0.032635164 -0.011794832 -0.296534
-0.011647515 -0.21562326 -0.05585795 0.057882834 -0.10867053 -0.09142384 -0.10605651 0.095165774
0.03949891 -0.05305662 -0.21826036 -0.20302072 0.084068455 0.07005855 0.041829605 -0.2599024
0.083033636 -0.10535651 0.07103008 0.22021289 -0.03850574 0.02790429 0.22486384 -0.18111472
0.24963506 -0.18954775 -0.13603999 -0.08311639 -0.07817751 0.025258468 -0.049275357 -0.16904703
0.08864785 0.22351088 0.017330669 -0.22122478 0.049272463 -0.049189053 0.06764646 0.037445713
-0.1292203 -0.23521733 -0.16717549 0.05177195 0.06004316 -0.032715965 -0.14825456 0.12904832
-0.021347351 -0.15061285 -0.15618406 -0.09496263 0.037073642 -0.0007337875 0.093777455 -0.07621475
0.099938735 -0.15306053 -0.16695125 -0.16122875 -0.26919436 -0.20603462 -0.25074667 -0.079707995
-0.060735125 -0.10992608 -0.21595079 0.13519879 -0.12559217 0.037169695 0.08918132 -0.19673476
-0.09410688 0.06333401 0.1582442 -0.09435306 0.095338754 -0.22455971 -0.20860657 0.11659854
-0.074023 0.14872646 -0.048302885 -0.13918437 0.14063531 0.12666757 -0.028408712 -0.1989147
-0.07360188 -0.15360454 0.09238232 -0.05404206 -0.002728936 0.06571153 0.008136055 -0.18489318
0.11464947 0.06991558 -0.18337606 0.09836019 -0.0018365539 -0.091116086 -0.22247249 -0.15021922
-0.31746382 0.0071755135 0.04405352 -0.16636685 0.084924124 -0.19479494 -0.066169746 -0.2694495
-0.12321767 -0.015333894 -0.023383426 -0.12130999 -0.2135851 0.03515508 0.030479908 -0.0685188
-0.21772687 -0.06777901 -0.10304446 0.0819432 0.008035838 -0.029294709 -0.015265243 0.09280404
00000000: 9adf dcbd 8b2e f3bd 6061 56bd 2b9f 31be
00000010: 6cb5 2dbc c082 01be 58e2 753e fd32 533e
00000020: 869c a33d 2e46 1c3d bb6c 2bbd ad6b 103c
00000030: 95ea ffbd 8ab0 83bd 2ebe b9bd 5549 d0bc
00000040: bd24 36be 2426 233d da74 4f3e d02c c1bd
00000050: 1dfc 323c edb2 9cbd a28a 5bbd 6e21 17bd
00000060: 9b35 0d3e 236c 86bc b131 40be a8cf 04be
00000070: f6ae 793d e94d 973c c459 40bd 4278 98bd
00000080: 2fc2 09be 8bbd 03be 1e9d 24be 083e 63bc
00000090: 8935 253c cbbb f83d 3099 cabd 3d19 11bd
000000a0: 5cae c33d 9ed4 393d baf5 2ebc c92a 253c
000000b0: 2694 bfbc 9418 67be 4eac 46bd a42b a8bd
000000c0: 2939 223e 6069 0f3e d05c 113c 354c 203e
000000d0: bc5e 2dbe cdf9 1e3e 03f6 183e bda8 85bd
000000e0: 7b92 56be 8c14 dfbd 4f16 ecbd 5d72 fcbc
000000f0: a506 72be 8b45 87bc 1536 00be a20d 12be
00000100: 77a3 e1bd 4bf0 d0bd ab91 94be 6e83 e6bd
00000110: e214 13bd 1846 633d fd4d 4e3e 1d68 62be
00000120: 2444 873b b075 f5bd 6d23 66be 3fe1 c6bd
00000130: 0bea f9bd 02d3 79be b236 95be 8161 12be
00000140: d286 fc3d 31de 1c3d 8a19 a1bd 8aed 4dbe
00000150: fa26 89be e7e6 76bd 28f1 8cbd 3509 003d
00000160: 81c2 0f3e 9d93 80bd 298a 4e3d 405f 88bd
00000170: 9236 20be a0b3 55bd e75a 52bd 28cd aa3d
00000180: ce3c ae3d 2e38 0cbd f417 06be f0cd 90bc
00000190: 382e 03be 663c 5d3e bb72 4fbe 56f1 323e
000001a0: 19b5 1bbe 59b7 59be dbd5 fcbc cff9 d43b
000001b0: cc91 d53d d3a5 023e 0832 abbd 266c bebd
000001c0: 5f4d 9abc ce4e f9bd 5b83 6bbd 4dec 85be
000001d0: 1418 80be 9e44 ad3d 3bce 3abe 656b ce3d
000001e0: 50e1 27bd 357c e5ba 0355 023e 923a 3fbe
000001f0: e80d b8bd 73ac 05bd 1c3f 41bc 4ed3 97be
00000200: 38d5 3ebc 58cc 5cbe 4ecb 64bd 8d16 6d3d
00000210: a88e debd 6c3c bbbd 2834 d9bd 46e6 c23d
00000220: 9cc9 213d e651 59bd a57f 5fbe aae4 4fbe
00000230: 152c ac3d db7a 8f3d 8555 2b3d ed11 85be
00000240: 8a0d aa3d 27c5 d7bd 3878 913d 7d7f 613e
00000250: 32b8 1dbd 8a97 e43c b542 663e 2376 39be
00000260: 55a0 7f3e ce18 42be 114e 0bbe ed38 aabd
00000270: 881b a0bd d9ea ce3c f5d4 49bd aa1a 2dbe
00000280: 018d b53d 09e0 643e 0cf9 8d3c c088 62be
00000290: ecd1 493d 767a 49bd 3a8a 8a3d ad60 193d
000002a0: 5452 04be d0dc 70be 0d30 2bbe d30e 543d
000002b0: d1ef 753d 2d01 06bd 0bd0 17be 3e25 043e
000002c0: a4e0 aebc 413a 1abe b7ee 1fbe c47b c2bd
000002d0: 88da 173d a55b 40ba 650e c03d 7b16 9cbd
000002e0: aeac cc3d e6bb 1cbe 45f5 2abe 2619 25be
000002f0: d8d3 89be bdfa 52be de61 80be f23d a3bd
00000300: 65c5 78bd ed20 e1bd 3422 5dbe 8d71 0a3e
00000310: 3c9b 00be 403f 183d b2a4 b63d d674 49be
00000320: 1cbb c0bd 43b5 813d c40a 223e 2d3c c1bd
00000330: f740 c33d fbf2 65be f69c 55be 37cb ee3d
00000340: 5f99 97bd c04b 183e 3fd9 45bd 5986 0ebe
00000350: b402 103e 25b5 013e 63b9 e8bc 4cb0 4bbe
00000360: 95bc 96bd 824a 1dbe f132 bd3d 355b 5dbd
00000370: f3d7 32bb c493 863d 174d 053c a354 3dbe
00000380: 57cd ea3d e62f 8f3d efc6 3bbe 1171 c93d
00000390: 86b8 f0ba 129b babd d4cf 63be 11d3 19be
000003a0: 9e8a a2be 9220 eb3b 7771 343d 125c 2abe
000003b0: b3ec ad3d 5378 47be 0184 87bd 49f5 89be
000003c0: 8c59 fcbd 033b 7bbc 998e bfbc 5f71 f8bd
000003d0: 0db6 5abe c6fe 0f3d 00b1 f93c 9653 8cbd
000003e0: cbf3 5ebe b9cf 8abd f908 d3bd d6d1 a73d
000003f0: bfa8 033c 75fb efbc 121b 7abc 0b10 be3d

encoder.0.bias f4 [128]
0.021230878 -0.050936215 0.054350454 0.21470232 -0.16075036 -0.33825752 0.11686765 -0.22085509
-0.032936007 0.07369411 -0.088189416 0.044650387 0.115761355 -0.13275082 -0.0074449675 -0.06351351
0.17946634 0.17890789 -0.19986087 -0.046729606 -0.0050290143 0.053404335 -0.020985197 0.01862406
-0.08028355 -0.09240804 -0.194535 0.06361019 0.097989604 -0.18217775 -0.2633874 0.14374878
-0.28585592 0.07930538 -0.2959283 -0.11179222 -0.17973338 0.11571371 -0.029545717 0.11271867
-0.040027738 0.16205521 0.07205331 0.07392608 0.073678955 -0.10333951 -0.034765445 -0.009836233
0.13562986 -0.056710206 -0.32573897 -0.28528112 -0.22195604 -0.003977881 -0.09507989 -0.11205473
-0.10734209 -0.04948325 -0.2788139 0.2328441 -0.14934738 -0.038074866 -0.021901047 -0.15624817
0.06311418 -0.06788482 -0.10288697 -0.33709708 -0.0011377742 0.00039166716 -0.09918234 -0.09331911
0.08948384 0.11246644 0.15467411 -0.08009519 -0.060981564 -0.20744464 -0.27644452 -0.15287355
-0.09371243 -0.10837237 -0.26426092 0.025173182 0.0563676 -0.35105073 0.09767106 -0.16326077
0.09499989 0.005736626 -0.06602221 0.1817854 -0.19595368 -0.18489218 0.06197154 -0.17354923
-0.13757764 -0.08800933 -0.06729928 0.08965231 0.011184276 0.062320083 -0.11328501 -0.057559952
-0.09688754 0.016961113 -0.08176369 0.05381714 0.041482016 0.081450656 -0.064621545 -0.1145693
0.03544935 0.15119636 -0.22998892 -0.07130772 -0.12493649 -0.27113068 -0.32548663 -0.11777357
0.0298641 -0.24672434 0.026913915 0.029842954 -0.2761175 0.01901446 0.14628145 -0.28185362
00000000: 61ec ad3c 7ea2 50bd 959e 5e3d edda 5b3e
00000010: be9b 24be 1730 adbe 4e58 ef3d d627 62be
00000020: e8e7 06bd f0ec 963d a79c b4bd 53e3 363d
00000030: 4a14 ed3d d5ef 07be eaf4 f3bb 5f13 82bd
00000040: 06c6 373e a133 373e 54a8 4cbe 8b67 3fbd
00000050: 6eca a4bb 81be 5a3d 26e9 abbc 7c91 983c
00000060: b46b a4bd 6d40 bdbd 2f34 47be 0f46 823d
00000070: c6ae c83d ce8c 3abe b7da 86be e132 133e
00000080: b55b 92be dc6a a23d ea83 97be 52f3 e4bd
00000090: 070c 38be 4ffb ec3d dc09 f2bc 0cd9 e63d
000000a0: 20f4 23bd cdf1 253e b090 933d 8e66 973d
000000b0: fee4 963d aaa3 d3bd 3666 0ebd 2728 21bc
000000c0: 8ee2 0a3e f648 68bd 42c7 a6be 5e10 92be
000000d0: 7248 63be e258 82bb 3fb9 c2bd f37c e5bd
000000e0: 2bd6 dbbd f3ae 4abd b2c0 8ebe af6e 6e3e
000000f0: 85ee 18be 64f4 1bbd d369 b3bc 85ff 1fbe
00000100: 0242 813d 3207 8bbd 67b6 d2bd fd97 acbe
00000110: 5e21 95ba ad58 cd39 1c20 cbbd 171e bfbd
00000120: 4e43 b73d ce54 e63d e462 1e3e f208 a4bd
00000130: cec7 79bd 5e6c 54be 238a 8dbe e28a 1cbe
00000140: 4dec bfbd 55f2 ddbd 354d 87be fd37 ce3c
00000150: b6e1 663d ecbc b3be c407 c83d d52d 27be
00000160: 4d8f c23d 4ffa bb3b a736 87bd f425 3a3e
00000170: 15a8 48be 6054 3dbe dfd5 7d3d e4b6 31be
00000180: 27e1 0cbe 3c3e b4bd 34d4 89bd a19b b73d
00000190: 413e 373c 5843 7f3d f901 e8bd fcc3 6bbd
000001a0: f96c c6bd 08f2 8a3c b973 a7bd 5d6f 5c3d
000001b0: 0ce9 293d 9acf a63d 4d58 84bd 4fa3 eabd
000001c0: 5633 113d 38d3 1a3e 3782 6bbe c809 92bd
000001d0: b4de ffbd a4d1 8abe 2fa6 a6be 4533 f1bd
000001e0: 8fa5 f43c 4ea5 7cbe 927a dc3c 3679 f43c
000001f0: 465f 8dbe 36c4 9b3c ceca 153e 1e4f 90be

conv1.bias f4 [128]
-0.09561568 -0.048696462 -0.06687053 -0.06466207 -0.090819865 -0.051307876 -0.07644127 -0.07768073
-0.059235923 -0.054928117 -0.09328736 -0.0805315 -0.05705641 -0.056856412 -0.026836798 -0.060913045
-0.036143348 -0.06697244 -0.03287944 -0.037535474 -0.06470797 -0.050348293 -0.07137927 -0.010757382
-0.051544916 -0.09862641 -0.067552276 -0.025155792 -0.057219964 -0.04056294 -0.06231108 -0.049682833
-0.08321529 -0.083110325 -0.07566826 -0.09257517 -0.055438563 -0.028057499 -0.054178476 -0.046364315
-0.07122356 -0.064955235 -0.08385881 -0.08455423 -0.051530816 -0.04574886 -0.017396035 -0.05726243
-0.040876687 -0.06356966 -0.05617384 -0.0598644 -0.055582095 -0.10910387 -0.07583644 -0.045066617
-0.059007622 -0.05907318 -0.06471868 -0.09283581 -0.057475757 -0.07835568 -0.05386536 -0.07282044
-0.042786125 -0.061172098 -0.038776025 -0.08933184 -0.051543478 -0.05952645 -0.047667857 -0.114175595
-0.06723715 -0.078944415 -0.06251137 -0.022530163 -0.0774416 -0.052583348 -0.08205492 -0.053684562
-0.05210061 -0.08955001 -0.060055003 -0.0627372 -0.05912615 -0.07214025 -0.06005496 -0.053771
-0.061702255 -0.060332134 -0.04522133 -0.049701277 -0.05598502 -0.06022144 -0.037778243 -0.06017382
-0.060054444 -0.0960024 -0.0560798 -0.001886062 -0.036081288 -0.056323655 -0.057618633 -0.07063703
-0.053964946 -0.041584108 -0.07076538 -0.052129224 -0.063990764 -0.0657321 -0.058302347 -0.08598425
-0.1262266 -0.08748619 -0.047712367 -0.071120165 -0.048734855 -0.06893417 -0.043908574 -0.061650388
-0.053321887 -0.061919373 -0.12994105 -0.08473723 -0.06005496 -0.086748615 -0.0132162785 -0.07846778
00000000: 27d2 c3bd f175 47bd 6bf3 88bd 8c6d 84bd
00000010: c4ff b9bd 3528 52bd 3e8d 9cbd 1317 9fbd
00000020: 5ea1 72bd 4efc 60bd 720d bfbd b3ed a4bd
00000030: fbb3 69bd 45e2 68bd d8d8 dbbc f57f 79bd
00000040: 0c0b 14bd d928 89bd 97ac 06bd ccbe 19bd
00000050: 9d85 84bd 033a 4ebd 4b2f 92bd bb3f 30bc
00000060: c320 53bd a5fc c9bd d958 8abd 8513 cebc
00000070: 7b5f 6abd 5325 26bd e739 7fbd 3a80 4bbd
00000080: c76c aabd bf35 aabd f6f7 9abd 0d98 bdbd
00000090: 8c13 63bd d7d8 e5bc 40ea 5dbd 82e8 3dbd
000000a0: a8dd 91bd 4007 85bd 2bbe abbd c52a adbd
000000b0: fa11 53bd 2863 3bbd 2182 8ebc 038c 6abd
000000c0: 506e 27bd cf30 82bd 8a16 66bd 6034 75bd
000000d0: 0daa 63bd da71 dfbd 2350 9bbd c697 38bd
000000e0: fab1 71bd b8f6 71bd 3a8b 84bd b320 bebd
000000f0: b36b 6bbd f178 a0bd eca1 5cbd e222 95bd
00000100: 8140 2fbd 988f 7abd 9cd3 1ebd 9df3 b6bd
00000110: 411f 53bd 02d2 73bd 5f3f 43bd e5d4 e9bd
00000120: a2b3 89bd 9cad a1bd f605 80bd 2d91 b8bc
00000130: b499 9ebd a361 57bd 690c a8bd 58e4 5bbd
00000140: 7367 55bd ff65 b7bd 3cfc 75bd 5c7c 80bd
00000150: 432e 72bd 44be 93bd 31fc 75bd fb3e 5cbd
00000160: 81bb 7cbd d41e 77bd 003a 39bd 9193 4bbd
00000170: 8c50 65bd c2aa 76bd 5cbd 1abd d378 76bd
00000180: a6fb 75bd e89c c4bd efb3 65bd bd35 f7ba
00000190: f9c9 13bd a2b3 66bd 8401 6cbd 26aa 90bd
000001a0: 590a 5dbd 1954 2abd 71ed 90bd 7485 55bd
000001b0: 970d 83bd 8d9e 86bd 71ce 6ebd 8318 b0bd
000001c0: 8c41 01be f62b b3bd 0b6e 43bd 73a7 91bd
000001d0: 339e 47bd 5c2d 8dbd 7ad9 33bd 1e85 7cbd
000001e0: 0d68 5abd 2b9f 7dbd 440f 05be b68a adbd
000001f0: 31fc 75bd 42a9 b1bd 1789 58bc b7b3 a0bd

conv1.lin.weight f4 [128, 128]
0.0324896 -0.05913676 0.003870462 -0.010753439 -0.12092042 -0.14259422 -0.09522342 -0.18664901
-0.08472806 -0.14393686 -0.2019027 -0.045102824 -0.046582736 -0.0036771663 -0.089366615 -0.12514131
-0.07987716 -0.19495574 -0.08071766 0.014050178 -0.06032381 -0.039130483 0.090126425 0.030399224
0.07597747 0.056241844 0.0006659126 -0.05955777 -0.20492229 -0.042760424 0.010411526 -0.042303465
0.019142875 -0.20501271 -0.07563669 0.08126023 -0.1918944 -0.085384995 -0.027628068 -0.18364075
-0.12303476 -0.17522737 0.034549758 -0.112998426 -0.062101 0.057732813 -0.039862122 -0.09989674
0.030645324 -0.1727931 0.057819087 -0.121461004 0.08221123 -0.1057007 -6.799387e-05 0.0682157
-0.15987955 -0.07265126 -0.12446161 -0.006355162 -0.08938847 0.0090221735 -0.16209085 -0.12070229
-0.08329029 0.022550562 0.0041976813 -0.1030277 0.025274165 -0.202019 -0.051243823 0.036763676
-0.100688 -0.15573348 -0.15331165 0.06838424 -0.051958922 -0.026435228 -0.16727708 0.01681031
-0.09167223 0.048087504 0.0171163 -0.19595075 0.056414995 -0.1659266 -0.13577749 -0.06455849
-0.21952368 -0.0707668 -0.13415566 -0.10865331 -0.07433466 -0.08883317 -0.0062176907 -0.11497392
-0.058972195 -0.041105814 -0.09762629 -0.20396347 0.03165012 -0.23465243 -0.019158533 0.03924372
0.099791214 -0.15163083 0.043611415 -0.20101312 -0.18969654 -0.032321803 -0.13141653 -0.16235079
-0.03602036 0.05299306 -0.0013797225 -0.0009930732 -0.024019714 0.049678177 -0.12963988 0.050882354
-0.026730852 0.04270325 -0.22266516 -0.02254987 -0.10690087 -0.07501799 -0.22611666 -0.09567988
-0.099174544 -0.10237412 0.15897468 -0.14899747 -0.041484974 0.07379691 -0.021268463 0.11479153
-0.036021806 0.040703844 0.017272431 -0.10675181 -0.16383831 -0.11929946 -0.1473299 -0.1333885
0.03669609 -0.13335972 -0.08143471 -0.0881196 -0.18851604 -0.07320924 0.054624803 -0.050635446
0.025396982 0.12580568 -0.048395365 -0.15935351 -0.13376251 -0.08139465 0.048361823 0.14681298
0.0691995 -0.015964745 0.00085505605 0.054883104 -0.015559349 0.07152929 -0.010517941 0.12548421
-0.022967834 0.05156156 -0.007222334 0.040548544 0.12311527 0.11423319 0.08443106 0.114563145
-0.10077958 -0.12142923 0.01134128 0.033932317 -0.09127668 0.0045148465 0.039458632 -0.059546996
-0.027278116 -0.049591515 0.1594969 -0.06750369 -0.100007035 0.08929771 -0.07925313 -0.19497748
0.03593622 -0.035208873 -0.0148181515 0.07642866 -0.056675494 -0.05329776 -0.03325144 0.10091645
-0.08003331 -0.040317796 -0.16127107 -0.050919347 -0.14274885 0.059955303 0.14935867 0.026903814
0.12438904 -0.14851037 -0.00034492157 0.015415002 0.13964765 -0.10260937 -0.13020809 -0.10472214
0.0851966 -0.020830018 0.09157042 -0.053369954 -0.07910715 -0.00036831605 0.0027247563 0.112338506
0.056994323 -0.121005066 -0.0551056 0.050420754 0.10418921 -0.03206173 0.12936956 0.049753986
-0.15906788 -0.087221146 0.059455324 -0.03924391 -0.15908252 -0.10529879 -0.11602688 0.05358684
0.0024722123 -0.12248616 -0.0026079526 0.044723295 0.067100935 -0.026373526 0.073842496 -0.10219534
-0.15683034 0.0584822 0.016029095 0.103245996 -0.010619293 0.040978517 0.07137804 -0.05180475
00000000: d113 053d 6339 72bd 94a7 7d3b 312f 30bc
00000010: 20a5 f7bd 3804 12be 7f04 c3bd eb20 3fbe
00000020: e885 adbd 2f64 13be 95bf 4ebe bdbd 38bd
00000030: 8acd 3ebd 9dfc 70bb d805 b7bd 0b25 00be
00000040: a396 a3bd 7aa2 47be 4d4f a5bd b832 663c
00000050: 1916 77bd 4947 20bd 3494 b83d cb07 f93c
00000060: 139a 9b3d d95d 663d a390 2e3a d9f2 73bd
00000070: 26d7 51be 8e25 2fbd 1b95 2a3c 6646 2dbd
00000080: 85d1 9c3c daee 51be 69e7 9abd c36b a63d
00000090: f77f 44be 54de aebd 4254 e2bc 520c 3cbe
000000a0: a6f9 fbbd ce6e 33be 0c84 0d3d b86b e7bd
000000b0: 9e5d 7ebd 3e79 6c3d 7746 23bd a996 ccbd
000000c0: e70b fb3c adf0 30be b5d3 6c3d 8cc0 f8bd
000000d0: 5d5e a83d 9c79 d8bd ee97 8eb8 acb4 8b3d
000000e0: 77b7 23be 2fca 94bd bbe5 febd f63e d0bb
000000f0: 4d11 b7bd bdd1 133c 25fb 25be c332 f7bd
00000100: 1994 aabd f5bb b83c b48c 893b 3000 d3bd
00000110: c40b cf3c 12de 4ebe 0be5 51bd 8295 163d
00000120: 8335 cebd 9978 1fbe bbfd 1cbe 090d 8c3d
00000130: e1d2 54bd b18e d8bc af4a 2bbe c6b5 893c
00000140: a6be bbbd 67f7 443d 7c37 8c3c 50a7 48be
00000150: 6913 673d aae8 29be 4109 0bbe 3e37 84bd
00000160: d1ca 60be 2fee 90bd 1a60 09be a085 debd
00000170: c53c 98bd 2aee b5bd c5bd cbbb 7277 ebbd
00000180: d48c 71bd 925e 28bd 4bf0 c7bd cddb 50be
00000190: 8ea3 013d ba48 70be 5bf2 9cbc 06be 203d
000001a0: 565f cc3d 1d45 1bbe e2a1 323d 62d6 4dbe
000001b0: cf3f 42be de63 04bd 0e92 06be 493f 26be
000001c0: 168a 13bd 400f 593d ced7 b4ba 022a 82ba
000001d0: fec4 c4bc 587b 4b3d 51c0 04be 046a 503d
000001e0: a9fa dabc 9ae9 2e3d 5602 64be 81ba b8bc
000001f0: d8ee dabd 08a3 99bd 208b 67be d0f3 c3bd
00000200: 061c cbbd 86a9 d1bd 42ca 223e cb92 18be
00000210: 26ec 29bd d622 973d 333b aebc d217 eb3d
00000220: 9a8b 13bd 13b9 263d ea7e 8d3c b1a0 dabd
00000230: 3bc5 27be 4653 f4bd a6dd 16be ff96 08be
00000240: a44e 163d 738f 08be 3ec7 a6bd 0d78 b4bd
00000250: 590a 41be baee 95bd 42be 5f3d 1d67 4fbd
00000260: 550d d03c 34d3 003e 383a 46bd 912d 23be
00000270: 0af9 08be 3db2 a6bd 0c17 463d 2456 163e
00000280: 78b8 8d3d 7fc8 82bc d725 603a 1bcd 603d
00000290: a4ec 7ebc f37d 923d 7153 2cbc ef7e 003e
000002a0: 0a27 bcbc 3732 533d 54a9 ecbb 3b16 263d
000002b0: dc23 fc3d 17f3 e93d 31ea ac3d 15a0 ea3d
000002c0: 8665 cebd e3af f8bd c7d0 393c 9dfc 0a3d
000002d0: 45ef babd 47f1 933b 609f 213d 8de7 73bd
000002e0: 5b76 dfbc 7920 4bbd 2853 233e 603f 8abd
000002f0: 7dd0 ccbd b8e1 b63d 774f a2bd 2da8 47be
00000300: dc31 133d 2e37 10bd d5c7 72bc a186 9c3d
00000310: 9024 68bd c14e 5abd a932 08bd 49ad ce3d
00000320: 81e8 a3bd 4624 25bd 3e24 25be ce90 50bd
00000330: c12c 12be b193 753d 7bf1 183e 6365 dc3c
00000340: aebf fe3d 1a13 18be 97d6 b4b9 348f 7c3c
00000350: cbff 0e3e dd24 d2bd 4555 05be 9078 d6bd
00000360: 8e7b ae3d b7a3 aabc 4689 bb3d 749a 5abd
00000370: ee02 a2bd 8b1a c1b9 d391 323b bb11 e63d
00000380: e172 693d 81d1 f7bd 69b6 61bd fe85 4e3d
00000390: 2761 d53d 2953 03bd 7479 043e d6ca 4b3d
000003a0: b1e2 22be 00a1 b2bd 6d87 733d 39be 20bd
000003b0: 87e6 22be e4a6 d7bd 809f edbd e07d 5b3d
000003c0: d704 223b 06da fabd 2fea 2abb c62f 373d
000003d0: 376c 893d 4b0d d8bc bc3a 973d ca4b d1bd
000003e0: 2298 20be 088b 6f3d 734f 833c a372 d33d
000003f0: 8bfc 2dbc 17d9 273d a62e 923d 3831 54bd

conv2.bias f4 [128]
-0.12130357 -0.008374286 -0.066990405 -0.043972477 -0.09048793 0.000485429 -0.0042191907 -0.019111432
-0.030234791 -0.03039199 -0.06864596 0.12041216 -0.05645466 -0.055259623 -0.056389447 -0.07604983
0.08093702 -0.0365727 -0.012523369 -0.053852387 -0.0762467 -0.053194307 -0.056975234 -0.078128
-0.07998013 -0.07416292 -0.07648049 -0.22393936 -0.05350649 -0.060914483 -0.054327596 0.057372134
-0.017179826 -0.22564423 -0.15169363 -0.036716703 -0.1673106 -0.18179989 -0.053300865 -0.047981553
-0.060750857 -0.08366029 -0.044418644 -0.061140615 -0.07817981 0.017293068 -0.050903726 -0.0861018
-0.0035056276 -0.16745546 -0.060414225 -0.14201303 -0.06493951 0.16493705 -0.048446413 -0.10258256
-0.12411983 -0.010027345 -0.0017088719 -0.0048104255 -0.09500095 -0.08701738 -0.05320225 -0.16134633
-0.14409128 -0.10342771 -0.08240188 -0.054006513 -0.045689903 -0.090602785 0.07808697 -0.018311236
-0.053027842 -0.087966636 -0.026224159 -0.097787276 -0.07737673 -0.060779907 -0.07476324 -0.06726284
-0.022459596 -0.0024385883 -0.06498978 -0.11784224 -0.09509654 -0.07918017 0.008777344 -0.05062846
-0.04577981 0.0009356679 -0.05502522 0.040803295 -0.1341467 -0.0473424 -0.063316174 -0.09086024
-0.16614693 -0.06005502 -0.080784544 -0.09666935 -0.043781973 0.03611888 -0.0857391 -0.05995488
-0.07409621 -0.0867956 -0.012612596 -0.106979825 -0.06388072 -0.005657412 -0.09476467 -0.0806425
-0.0861271 -0.24954386 -0.03645334 -0.15446948 -0.067290045 -0.30781242 -0.19919714 -0.030374214
-0.060775027 0.08951028 -0.08337339 0.13302155 -0.14942095 -0.13331264 -0.12952694 -0.013669115
00000000: 026e f8bd 4d34 09bc 4432 89bd 7c1c 34bd
00000010: bc51 b9bd 2d81 fe39 2341 8abb 948f 9cbc
00000020: f4ae f7bc 9ff8 f8bc 4196 8cbd a79a f63d
00000030: 003d 67bd ea57 62bd 9ff8 66bd 03c0 9bbd
00000040: 4fc2 a53d 41cd 15bd d12e 4dbc 5294 5cbd
00000050: 3b27 9cbd 46e2 59bd dd5e 69bd 9301 a0bd
00000060: 9fcc a3bd bbe2 97bd cea1 9cbd 5c50 65be
00000070: 9f29 5bbd 7781 79bd 9d86 5ebd 0bff 6a3d
00000080: b5bc 8cbc 480f 67be 9355 1bbe 4164 16bd
00000090: 7853 2bbe c029 3abe 0252 5abd 4e88 44bd
000000a0: e4d5 78bd 1656 abbd 53f0 35bd 956e 7abd
000000b0: bc1c a0bd 31aa 8d3c 6d80 50bd 2456 b0bd
000000c0: acbe 65bb 7279 2bbe e874 77bd dd6b 11be
000000d0: 01ff 84bd 42e5 283e bf6f 46bd ce16 d2bd
000000e0: 8a32 febd bc49 24bc 3afc dfba c6a0 9dbb
000000f0: dc8f c2bd 2b36 b2bd 9aea 59bd f937 25be
00000100: aa8c 13be e8d1 d3bd 51c2 a8bd ef35 5dbd
00000110: 5625 3bbd f48d b9bd 10ec 9f3d 7201 96bc
00000120: b933 59bd da27 b4bd 0cd4 d6bc b244 c8bd
00000130: b177 9ebd 5af4 78bd 781d 99bd 1ac1 89bd
00000140: 30fd b7bc b9d0 1fbb 5d19 85bd 4657 f1bd
00000150: fac1 c2bd 3729 a2bd d9ce 0f3c ca5f 4fbd
00000160: 9c83 3bbd 9c47 753a 2062 61bd 5b21 273d
00000170: c15d 09be 1bea 41bd e9ab 81bd ef14 babd
00000180: 6c22 2abe 41fc 75bd 5e72 a5bd 95fa c5bd
00000190: ba54 33bd 64f1 133d fb97 afbd 4093 75bd
000001a0: c1bf 97bd e4c1 b1bd 10a5 4ebc 3d18 dbbd
000001b0: e5d3 82bd d061 b9bb fb13 c2bd e527 a5bd
000001c0: 6863 b0bd 6d88 7fbe 1950 15bd 3f2d 1ebe
000001d0: 5dcf 89bd 9799 9dbe 56fa 4bbe 58d3 f8bc
000001e0: 3cef 78bd 2a51 b73d abbf aabd cd36 083e
000001f0: ce01 19be 1c83 08be b6a2 04be 6cf4 5fbc

conv2.lin.weight f4 [128, 128]
-0.08954757 -0.10077768 -0.062066384 -0.0076890294 0.027343214 -0.012621178 -0.08660459 -0.0323629
-0.1707716 -0.19670852 0.07926469 -0.040995102 -0.14621522 -0.11648761 -0.026396574 -0.15540583
-0.082221545 -0.00348338 0.074967206 -0.14958988 -0.17777938 -0.14890566 -0.09201128 -0.20544238
-0.060473073 -0.029571224 -0.059010956 -0.09351468 -0.19674627 0.08168843 0.029554531 0.10083215
0.06779552 0.045625065 0.029530335 0.10834019 -0.21318465 -0.14472681 -0.16501154 0.16677822
-0.15342182 0.18475454 -0.102715135 0.064254686 -0.12074762 -0.1695765 0.087447345 -0.075082205
-0.20792015 0.05403709 -0.20667405 0.08910793 -0.010941189 -0.048255 -0.18030588 -0.11794699
0.05485533 -0.062001504 0.009777137 -0.04503688 -0.060246214 -0.104261614 -0.10440129 -0.099369705
-0.13840023 0.043446615 -0.1198481 -0.15904438 -0.09773692 0.0663676 0.008560935 0.0514709
0.023959443 -0.09592723 -0.08761598 -0.07601952 -0.03094512 -0.17569171 -0.19095455 0.05650644
-0.13619034 -0.1438487 0.031745363 -0.11838306 0.058027543 -0.077316254 -0.13856687 0.1432132
-0.19835486 -0.07191309 -0.038856946 0.10318512 -0.0475654 0.052796215 -0.19084232 0.080969274
-0.040227402 -0.09170016 -0.16268213 0.013254432 0.051530316 0.03045196 -0.048879 0.0044250884
-0.17962502 0.00048693165 -0.07842165 -0.027486362 -0.1555762 -0.1730382 -0.06456395 -0.06187557
0.07265183 -0.03749982 0.04672834 -0.12152592 -0.17628242 -0.12807545 0.06593431 0.009147473
-0.028500425 -0.04810413 0.072163165 -0.06888636 0.060895916 -0.026215428 0.027363107 -0.011150663
0.02169956 0.029924331 -0.081130214 0.09198558 -0.12985227 -0.08894728 -0.035211924 -0.014973823
-0.10754321 -0.0962569 0.111554846 0.064379886 0.057978403 -0.06852042 -0.042267203 0.09319205
-0.16280071 0.108212575 -0.16601731 -0.13699862 -0.067956515 0.026644427 -0.13178356 -0.121391326
-0.14799482 0.032178234 -0.07885865 -0.16889463 0.03106966 -0.17124312 0.059525955 -0.20108144
0.1570773 -0.10015302 -0.037754603 -0.12044363 -0.1740283 -0.10427487 -0.062258992 -0.14634848
-0.16135003 0.02640727 0.11584858 -0.004219755 0.033411555 -0.062038556 -0.102518134 -0.012236126
0.0057244096 0.021241268 0.039866515 -0.08327217 -0.02881891 -0.055465117 -0.10375812 -0.16343611
-0.004094677 -0.11209479 0.1467899 0.057960324 -0.040936287 0.15030062 -0.024446944 -0.11472069
-0.13916439 -0.06525166 0.064755194 -0.07793567 -0.14328441 0.19323194 -0.1409452 0.087652445
0.1809382 -0.022791367 0.05347768 -0.010943457 0.008385836 0.071521565 0.06404718 -0.19690137
0.10689295 0.09885489 0.043807905 -0.055870112 0.01574837 -0.07994885 0.14837694 -0.1813827
-0.0200622 0.06696707 -0.019772628 0.08683664 0.052760806 0.0038153743 -0.03539433 -0.016651288
0.20687002 -0.10622993 -0.013819309 -0.15777203 -0.13838133 -0.0882698 -0.0021544797 -0.102049835
-0.06551196 0.04171785 0.00059297757 -0.18958785 0.13322142 -0.032835606 -0.0061045927 0.06721389
-0.028885795 0.027440941 0.09880146 -0.18812731 -0.13222776 0.021449657 0.07584597 -0.047511734
0.08410752 0.11557888 -0.09857583 0.12495342 0.20509669 0.004500559 -0.012213755 -0.023610184
00000000: b764 b7bd 8764 cebd 5239 7ebd 41f4 fbbb
00000010: e0fe df3c 0fc9 4ebc bf5d b1bd f68e 04bd
00000020: c0de 2ebe f56d 49be 8755 a23d 7bea 27bd
00000030: 71b9 15be 0e91 eebd a13d d8bc b522 1fbe
00000040: c563 a8bd 6b49 64bb 6888 993d 172e 19be
00000050: cc0b 36be ba7a 18be 6970 bcbd 7d5f 52be
00000060: 9db2 77bd 5a3f f2bc 79b5 71bd a084 bfbd
00000070: db77 49be 434c a73d 581c f23c 1681 ce3d
00000080: 61d8 8a3d 59e1 3a3d 9ae9 f13c 76e1 dd3d
00000090: 144d 5abe 4433 14be c9f8 28be e9c7 2a3e
000000a0: 9c1a 1dbe 4b30 3d3e 505c d2bd f697 833d
000000b0: 874a f7bd 76a5 2dbe 9817 b33d b3c4 99bd
000000c0: 05e9 54be ff55 5d3d 5da2 53be 387e b63d
000000d0: ac42 33bc 09a7 45bd 1ba2 38be 318e f1bd
000000e0: fcaf 603d 4af5 7dbd 4930 203c 9778 38bd
000000f0: bcc4 76bd 1d87 d5bd 58d0 d5bd 5882 cbbd
00000100: cab8 0dbe 14f5 313d ec72 f5bd 88dc 22be
00000110: 4b2a c8bd bceb 873d 2a43 0c3c 27d3 523d
00000120: 9846 c43c 7f75 c4bd 0270 b3bd 1fb0 9bbd
00000130: 9f80 fdbc 87e8 33be 9789 43be 4c73 673d
00000140: 7b75 0bbe 134d 13be 6d07 023d d172 f2bd
00000150: 4aae 6d3d fc57 9ebd 79e4 0dbe 7ba6 123e
00000160: 891d 4bbe 2c47 93bd 7628 1fbd b852 d33d
00000170: f0d3 42bd d840 583d 2b6c 43be 38d3 a53d
00000180: 7dc5 24bd 4bcd bbbd 2596 26be 1e29 593c
00000190: 7411 533d 6476 f93c 5935 48bd 5500 913b
000001a0: 9fef 37be dc4a ff39 889b a0bd 142b e1bc
000001b0: 5e4f 1fbe ed30 31be 1b3a 84bd 3d71 7dbd
000001c0: 7cca 943d 6999 19bd 3766 3f3d 95e2 f8bd
000001d0: 6183 34be 3626 03be 9108 873d 48df 153c
000001e0: b979 e9bc d608 45bd 48ca 933d 4b14 8dbd
000001f0: ff6d 793d bdc1 d6bc 9828 e03c 45b1 36bc
00000200: 47c3 b13c df23 f53c 9927 a6bd f062 bc3d
00000210: fef7 04be fe29 b6bd 613a 10bd c454 75bc
00000220: 9d3f dcbd 5622 c5bd de76 e43d 9ad9 833d
00000230: c37a 6d3d 6f54 8cbd 6020 2dbd 79db be3d
00000240: 3bb5 26be 8e9e dd3d 7100 2abe 5e49 0cbe
00000250: c92c 8bbd 6a45 da3c 45f2 06be 049c f8bd
00000260: f48b 17be 53cd 033d a580 a1bd b7f2 2cbe
00000270: cd85 fe3c 5b5a 2fbe 7dd1 733d 4be8 4dbe
00000280: dfd8 203e 071d cdbd 92a4 1abd 26ab f6bd
00000290: 7a34 32be 108e d5bd 4903 7fbd 60dc 15be
000002a0: f138 25be 0f54 d83c 0542 ed3d df45 8abb
000002b0: 8eda 083d 241c 7ebd 07f5 d1bd 087a 48bc
000002c0: d493 bb3b 2b02 ae3c 124b 233d 998a aabd
000002d0: a215 ecbc 642f 63bd 237f d4bd cc5b 27be
000002e0: a42c 86bb f491 e5bd 1750 163e ce67 6d3d
000002f0: cfac 27bd 68e8 193e f544 c8bc aef2 eabd
00000300: 1c81 0ebe aaa2 85bd 5f9e 843d bd9c 9fbd
00000310: 26b9 12be 98de 453e f053 10be 2083 b33d
00000320: dd47 393e f6b4 babc 690b 5b3d 2f4c 33bc
00000330: bf64 093c e679 923d 2b2b 833d 83a0 49be
00000340: b1ea da3d 6f74 ca3d eb6f 333d 0fd8 64bd
00000350: ba02 813c 39bc a3bd 20f0 173e 63bc 39be
00000360: 7c59 a4bc 0826 893d 35fa a1bc 69d7 b13d
00000370: b71b 583d 5c0b 7a3b a5f9 10bd 4868 88bc
00000380: bcd5 533e 148f d9bd 626a 62bc fe8e 21be
00000390: d6b3 0dbe ccc6 b4bd 2c32 0dbb 81ff d0bd
000003a0: 222b 86bd 56e0 2a3d 0d72 1b3a 5123 42be
000003b0: 326b 083e a17e 06bd 0909 c8bb 70a7 893d
000003c0: e7a1 ecbc d3cb e03c 6b58 ca3d 72a4 40be
000003d0: b766 07be 31b7 af3c 2255 9b3d aa9b 42bd
000003e0: 9040 ac3d 9fb4 ec3d 20e2 c9bd 94e7 ff3d
000003f0: de04 523e 6d79 933b 341c 48bc 256a c1bc

cls_head.0.weight f4 [4, 128]
-0.014951587 -0.011373438 -0.031513076 -0.0046798466 0.01468268 -0.020645848 0.03521709 -0.004427483
-0.061670825 0.026658833 -0.0071046003 0.0727856 -0.041647166 -0.02396384 0.015804857 -0.029088913
0.099364586 -0.03167858 0.031491388 0.087004654 -0.019083379 -0.06819365 0.01040451 0.0913375
0.0034887362 0.037687242 -0.014977232 0.010023555 0.026015874 0.10842796 0.0296059 -0.025465997
-0.015544993 0.12439877 0.06442394 0.008567533 -0.0075868783 -0.005981658 0.017640075 0.04309244
-0.027145328 -0.0014587492 0.030634498 0.045514155 -0.036580805 -0.036746737 0.12603891 0.13552508
-0.032883465 -0.037338782 0.018440593 0.091775365 -0.011029473 -0.011359101 -0.026768861 -0.021277461
-0.016420284 0.10739672 -0.036339883 -0.053543024 0.097490475 -0.02022211 0.018290646 0.050547056
0.057833202 0.0024134233 0.05285451 -0.007262592 -0.06522838 0.11478397 0.08151878 0.10010279
0.070077166 0.026234837 0.012828788 0.014608347 0.04517886 0.0043206783 0.054538153 -0.0021159933
-0.04201287 -0.015687222 -0.001020877 -0.035895154 -0.0076121795 0.0588749 -0.058036134 0.05132433
-0.021723624 -0.0763078 0.050059494 0.15936732 -0.016862346 -0.048200306 -0.014066977 0.049756326
-0.047432575 0.014435146 0.038621042 0.06356339 0.12995201 0.027554052 0.021329673 0.088772796
-0.034103252 -0.07378208 -0.015723398 -0.022109143 -0.021769643 0.07760511 -0.028161779 -0.008034049
-0.053393837 -0.0041215075 0.048609804 0.09628023 0.07121925 0.0059722085 -0.056117263 0.032320365
0.0055154283 0.014932403 0.06888524 0.07623756 0.0009799039 0.13075882 0.0471924 0.0096304845
0.10986584 0.011427877 0.08337101 0.060060948 0.04691826 0.012737619 -0.005111428 -0.092213
-0.015456432 -0.027591346 0.03440963 0.047415607 3.0897976e-05 0.051324088 0.039282326 0.04679819
-0.03254777 0.037436202 0.024453616 0.06456866 0.024285821 0.08231749 0.0290682 0.060173538
0.026705103 0.047577716 0.028593592 0.12024205 0.035921063 0.03196529 0.06106901 -0.041239053
-0.022870392 0.10796279 0.019280503 0.01904764 0.0134149995 0.010536235 -0.00984712 0.042279188
0.08228476 0.011866059 0.04563708 0.01823981 0.060475327 -0.016959349 0.03300934 0.07016343
0.025386268 0.09774714 0.047228657 0.029563403 0.07395282 0.01179198 0.020062484 0.013614461
0.040346406 0.001925671 -0.062173434 -0.037109204 -0.000548516 0.17657486 0.03575256 0.06731372
0.034185477 0.1069461 0.06509077 -0.052236654 -0.07079961 0.059421316 -0.044704553 -0.04310445
0.027011171 0.032260437 0.059702653 0.13327517 -0.03033697 0.087241136 0.04566391 0.059842695
0.046340745 -0.06286599 -0.0024551179 -0.002275061 0.073462404 0.1093189 0.008094946 -0.11576214
0.06269333 0.07961214 -0.025193447 -0.03809239 0.020866357 0.009218533 0.05397138 0.034860067
0.08272857 -0.0070369206 0.027999422 -0.08960753 0.03716381 -0.041157726 0.042486932 0.011152476
0.040611282 -0.004307837 -0.0050675715 0.05441484 0.044815548 -0.011791839 0.10621018 0.14759986
0.026685076 0.046666604 0.03354194 0.0035518692 0.08493919 0.045359008 -0.05461705 0.05607276
0.00034294164 -0.019232286 0.026986951 0.026063241 0.04315597 -0.0011647303 0.07007573 0.012360347
00000000: 80f7 74bc a857 3abc db13 01bd 6659 99bb
00000010: a08f 703c 7b21 a9bc cc3f 103d 6b14 91bb
00000020: 8c9a 7cbd a063 da3c b5cd e8bb 9e10 953d
00000030: 3896 2abd d14f c4bc 3079 813c df4b eebc
00000040: a97f cb3d 66c1 01bd 1dfd 003d 7f2f b23d
00000050: bf54 9cbc 1da9 8bbd ae77 2a3c 280f bb3d
00000060: 48a3 643b f05d 1a3d 1063 75bc d639 243c
00000070: 3e1f d53c 7a0f de3d 1388 f23c 119e d0bc
00000080: 6db0 7ebc c8c4 fe3d b3f0 833d d75e 0c3c
00000090: 599b f8bb c901 c4bb eb81 903c b381 303d
000000a0: e15f debc 8033 bfba 33f5 fa3c 0d6d 3a3d
000000b0: c1d5 15bd bf83 16bd 5810 013e 16c7 0a3e
000000c0: d0b0 06bd 8df0 18bd ba10 973c b9f4 bb3d
000000d0: f6b4 34bc 861b 3abc 5f4a dbbc 124e aebc
000000e0: d583 86bc d0f2 db3d 21d9 14bd ee4f 5bbd
000000f0: 16a9 c73d d7a8 a5bc 44d6 953c 6e0a 4f3d
00000100: 82e2 6c3d 862a 1e3b f87d 583d 0afb edbb
00000110: 7596 85bd dc13 eb3d 51f3 a63d b102 cd3d
00000120: 9e84 8f3d 71ea d63c d62f 523c d957 6f3c
00000130: 780d 393d 7a94 8d3b 6663 5f3d 7aac 0abb
00000140: b015 2cbd 7d82 80bc f3ce 85ba cc06 13bd
00000150: 976f f9bb cf26 713d 4cb7 6dbd 7639 523d
00000160: bef5 b1bc 4447 9cbd 2f0b 4d3d 3031 233e
00000170: e722 8abc af6d 45bd 2e79 66bc 4acd 4b3d
00000180: a948 42bd 6481 6c3c 1931 1e3d 862d 823d
00000190: 2412 053e 09b9 e13c 91bb ae3c 83ce b53d
000001a0: daaf 0bbd 0f1b 97bd 5bce 80bc 3c1e b5bc
000001b0: 4056 b2bc 6eef 9e3d 88b3 e6bc 3ea1 03bc
000001c0: 7fb3 5abd b60d 87bb 131b 473d 922e c53d
000001d0: 66db 913d 84b2 c33b 37db 65bd 5c62 043d
000001e0: c4ba b43b 0aa7 743c b413 8d3d 7022 9c3d
000001f0: 1e70 803a a4e5 053e d14c 413d 2ec9 1d3c
00000200: 5701 e13d fd3b 3b3c 6cbe aa3d 7802 763d
00000210: 5d2d 403d 72b1 503c c47d a7bb 2bda bcbd
00000220: f93c 7dbc 3f07 e2bc 1df1 0c3d de36 423d
00000230: 7398 0138 3539 523d 81e6 203d 75af 3f3d
00000240: cf50 05bd b456 193d f352 c83c 933c 843d
00000250: 0ff3 c63c 1296 a83d 6f20 ee3c 8778 763d
00000260: a9c4 da3c dae0 423d 1c3d ea3c 7741 f63d
00000270: f721 133d 09ee 023d 8023 7a3d 48ea 28bd
00000280: b05a bbbc 981b dd3d 25f2 9d3c cc09 9c3c
00000290: 96ca 5b3c 2ca0 2c3c d155 21bc f12c 2d3d
000002a0: ea84 a83d dc69 423c f2ed 3a3d a76b 953c
000002b0: fab4 773d 55ee 8abc cd34 073d d8b1 8f3d
000002c0: ddf6 cf3c a72f c83d d672 413d f32e f23c
000002d0: 9374 973d 2633 413c 145a a43c 300f 5f3c
000002e0: 4642 253d cc66 fc3a 92a9 7ebd d2ff 17bd
000002f0: 49ca 0fba 0ad0 343e 4771 123d c7db 893d
00000300: 1206 0c3d 8f06 db3d 4f4e 853d 1af6 55bd
00000310: 63ff 90bd c463 733d 1f1c 37bd 4b8e 30bd
00000320: 8846 dd3c 8523 043d c58a 743d 4979 083e
00000330: 3d85 f8bc 7bab b23d 150a 3b3d 9d1d 753d
00000340: cbcf 3d3d e2bf 80bd 0be6 20bb 3119 15bb
00000350: 7573 963d 96e2 df3d aaa0 043c b314 edbd
00000360: 5c65 803d b10b a33d 7d62 cebc c406 1cbd
00000370: ecef aa3c 5409 173c 1811 5d3d 6ec9 0e3d
00000380: 996d a93d f895 e6bb 0b5f e53c 2784 b7bd
00000390: 1439 183d 0195 28bd c706 2e3d e0b8 363c
000003a0: 0458 263d c228 8dbb df0d a6bb 18e2 5e3d
000003b0: 8290 373d 8f32 41bc b984 d93d 6b24 173e
000003c0: a99a da3c 7b25 3f3d 4663 093d 7ac6 683b
000003d0: 99f4 ad3d 5eca 393d 21b6 5fbd 8dac 653d
000003e0: d9cc b339 078d 9dbc bd13 dd3c 9482 d53c
000003f0: 50c4 303d dda9 98ba dd83 8f3d 0e83 4a3c

cls_head.0.bias f4 [4]
0.04382048 -0.10731805 0.025562214 0.1736042
00000000: 1b7d 333d 91c9 dbbd d967 d13c 4dc5 313e
